…
warmup_ratio: 1e-06
weight: /home/user/CODES/ex_data/COSeg_mult/2_924/080/model/model_best.pth
weight_decay: 0.01
window_size: [0.16, 0.32, 0.64, 1.28]
workers: 32
world_size: 4
[01/07 20:38:04] main-logger INFO: => creating model ...
[01/07 20:38:04] main-logger INFO: MM_FSS(
  (criterion): CrossEntropyLoss()
  (criterion_base): CrossEntropyLoss()
  (encoder): Stratified(
    (stem_layer): ModuleList(
      (0): KPConvSimpleBlock(
        (kpconv): KPConvLayer(InF: 6, OutF: 48, kernel_pts: 15, radius: 0.06, KP_influence: linear, Add_one: False)
        (bn): FastBatchNorm1d(
          (batch_norm): BatchNorm1d(48, eps=1e-05, momentum=0.02, affine=True, track_running_stats=True)
        )
        (activation): LeakyReLU(negative_slope=0.2)
      )
    )
    (layers): ModuleList(
      (0): BasicLayer(
        (blocks): ModuleList(
          (0): SwinTransformerBlock(
            (norm1): LayerNorm((48,), eps=1e-05, elementwise_affine=True)
            (attn): WindowAttention(
              (qkv): Linear(in_features=48, out_features=144, bias=True)
              (attn_drop): Dropout(p=0.0, inplace=True)
              (proj): Linear(in_features=48, out_features=48, bias=True)
              (proj_drop): Dropout(p=0.0, inplace=True)
              (softmax): Softmax(dim=-1)
            )
            (drop_path): Identity()
            (norm2): LayerNorm((48,), eps=1e-05, elementwise_affine=True)
            (mlp): Mlp(
              (fc1): Linear(in_features=48, out_features=192, bias=True)
              (act): GELU(approximate=none)
              (fc2): Linear(in_features=192, out_features=48, bias=True)
              (drop): Dropout(p=0.0, inplace=True)
            )
          )
          (1): SwinTransformerBlock(
            (norm1): LayerNorm((48,), eps=1e-05, elementwise_affine=True)
            (attn): WindowAttention(
              (qkv): Linear(in_features=48, out_features=144, bias=True)
              (attn_drop): Dropout(p=0.0, inplace=True)
              (proj): Linear(in_features=48, out_features=48, bias=True)
              (proj_drop): Dropout(p=0.0, inplace=True)
              (softmax): Softmax(dim=-1)
            )
            (drop_path): DropPath(drop_prob=0.027)
            (norm2): LayerNorm((48,), eps=1e-05, elementwise_affine=True)
            (mlp): Mlp(
              (fc1): Linear(in_features=48, out_features=192, bias=True)
              (act): GELU(approximate=none)
              (fc2): Linear(in_features=192, out_features=48, bias=True)
              (drop): Dropout(p=0.0, inplace=True)
            )
          )
        )
        (downsample): TransitionDown(
          (norm): LayerNorm((48,), eps=1e-05, elementwise_affine=True)
          (linear): Linear(in_features=48, out_features=96, bias=False)
          (pool): MaxPool1d(kernel_size=16, stride=16, padding=0, dilation=1, ceil_mode=False)
        )
      )
      (1): BasicLayer(
        (blocks): ModuleList(
          (0): SwinTransformerBlock(
            (norm1): LayerNorm((96,), eps=1e-05, elementwise_affine=True)
            (attn): WindowAttention(
              (qkv): Linear(in_features=96, out_features=288, bias=True)
              (attn_drop): Dropout(p=0.0, inplace=True)
              (proj): Linear(in_features=96, out_features=96, bias=True)
              (proj_drop): Dropout(p=0.0, inplace=True)
              (softmax): Softmax(dim=-1)
            )
            (drop_path): DropPath(drop_prob=0.055)
            (norm2): LayerNorm((96,), eps=1e-05, elementwise_affine=True)
            (mlp): Mlp(
              (fc1): Linear(in_features=96, out_features=384, bias=True)
              (act): GELU(approximate=none)
              (fc2): Linear(in_features=384, out_features=96, bias=True)
              (drop): Dropout(p=0.0, inplace=True)
            )
          )
          (1): SwinTransformerBlock(
            (norm1): LayerNorm((96,), eps=1e-05, elementwise_affine=True)
            (attn): WindowAttention(
              (qkv): Linear(in_features=96, out_features=288, bias=True)
              (attn_drop): Dropout(p=0.0, inplace=True)
              (proj): Linear(in_features=96, out_features=96, bias=True)
              (proj_drop): Dropout(p=0.0, inplace=True)
              (softmax): Softmax(dim=-1)
            )
            (drop_path): DropPath(drop_prob=0.082)
            (norm2): LayerNorm((96,), eps=1e-05, elementwise_affine=True)
            (mlp): Mlp(
              (fc1): Linear(in_features=96, out_features=384, bias=True)
              (act): GELU(approximate=none)
              (fc2): Linear(in_features=384, out_features=96, bias=True)
              (drop): Dropout(p=0.0, inplace=True)
            )
          )
        )
        (downsample): TransitionDown(
          (norm): LayerNorm((96,), eps=1e-05, elementwise_affine=True)
          (linear): Linear(in_features=96, out_features=192, bias=False)
          (pool): MaxPool1d(kernel_size=16, stride=16, padding=0, dilation=1, ceil_mode=False)
        )
      )
      (2): BasicLayer(
        (blocks): ModuleList(
          (0): SwinTransformerBlock(
            (norm1): LayerNorm((192,), eps=1e-05, elementwise_affine=True)
            (attn): WindowAttention(
              (qkv): Linear(in_features=192, out_features=576, bias=True)
              (attn_drop): Dropout(p=0.0, inplace=True)
              (proj): Linear(in_features=192, out_features=192, bias=True)
              (proj_drop): Dropout(p=0.0, inplace=True)
              (softmax): Softmax(dim=-1)
            )
            (drop_path): DropPath(drop_prob=0.109)
            (norm2): LayerNorm((192,), eps=1e-05, elementwise_affine=True)
            (mlp): Mlp(
              (fc1): Linear(in_features=192, out_features=768, bias=True)
              (act): GELU(approximate=none)
              (fc2): Linear(in_features=768, out_features=192, bias=True)
              (drop): Dropout(p=0.0, inplace=True)
            )
          )
          (1): SwinTransformerBlock(
            (norm1): LayerNorm((192,), eps=1e-05, elementwise_affine=True)
            (attn): WindowAttention(
              (qkv): Linear(in_features=192, out_features=576, bias=True)
              (attn_drop): Dropout(p=0.0, inplace=True)
              (proj): Linear(in_features=192, out_features=192, bias=True)
              (proj_drop): Dropout(p=0.0, inplace=True)
              (softmax): Softmax(dim=-1)
            )
            (drop_path): DropPath(drop_prob=0.136)
            (norm2): LayerNorm((192,), eps=1e-05, elementwise_affine=True)
            (mlp): Mlp(
              (fc1): Linear(in_features=192, out_features=768, bias=True)
              (act): GELU(approximate=none)
              (fc2): Linear(in_features=768, out_features=192, bias=True)
              (drop): Dropout(p=0.0, inplace=True)
            )
          )
          (2): SwinTransformerBlock(
            (norm1): LayerNorm((192,), eps=1e-05, elementwise_affine=True)
            (attn): WindowAttention(
              (qkv): Linear(in_features=192, out_features=576, bias=True)
              (attn_drop): Dropout(p=0.0, inplace=True)
              (proj): Linear(in_features=192, out_features=192, bias=True)
              (proj_drop): Dropout(p=0.0, inplace=True)
              (softmax): Softmax(dim=-1)
            )
            (drop_path): DropPath(drop_prob=0.164)
            (norm2): LayerNorm((192,), eps=1e-05, elementwise_affine=True)
            (mlp): Mlp(
              (fc1): Linear(in_features=192, out_features=768, bias=True)
              (act): GELU(approximate=none)
              (fc2): Linear(in_features=768, out_features=192, bias=True)
              (drop): Dropout(p=0.0, inplace=True)
            )
          )
          (3): SwinTransformerBlock(
            (norm1): LayerNorm((192,), eps=1e-05, elementwise_affine=True)
            (attn): WindowAttention(
              (qkv): Linear(in_features=192, out_features=576, bias=True)
              (attn_drop): Dropout(p=0.0, inplace=True)
              (proj): Linear(in_features=192, out_features=192, bias=True)
              (proj_drop): Dropout(p=0.0, inplace=True)
              (softmax): Softmax(dim=-1)
            )
            (drop_path): DropPath(drop_prob=0.191)
            (norm2): LayerNorm((192,), eps=1e-05, elementwise_affine=True)
            (mlp): Mlp(
              (fc1): Linear(in_features=192, out_features=768, bias=True)
              (act): GELU(approximate=none)
              (fc2): Linear(in_features=768, out_features=192, bias=True)
              (drop): Dropout(p=0.0, inplace=True)
            )
          )
          (4): SwinTransformerBlock(
            (norm1): LayerNorm((192,), eps=1e-05, elementwise_affine=True)
            (attn): WindowAttention(
              (qkv): Linear(in_features=192, out_features=576, bias=True)
              (attn_drop): Dropout(p=0.0, inplace=True)
              (proj): Linear(in_features=192, out_features=192, bias=True)
              (proj_drop): Dropout(p=0.0, inplace=True)
              (softmax): Softmax(dim=-1)
            )
            (drop_path): DropPath(drop_prob=0.218)
            (norm2): LayerNorm((192,), eps=1e-05, elementwise_affine=True)
            (mlp): Mlp(
              (fc1): Linear(in_features=192, out_features=768, bias=True)
              (act): GELU(approximate=none)
              (fc2): Linear(in_features=768, out_features=192, bias=True)
              (drop): Dropout(p=0.0, inplace=True)
            )
          )
          (5): SwinTransformerBlock(
            (norm1): LayerNorm((192,), eps=1e-05, elementwise_affine=True)
            (attn): WindowAttention(
              (qkv): Linear(in_features=192, out_features=576, bias=True)
              (attn_drop): Dropout(p=0.0, inplace=True)
              (proj): Linear(in_features=192, out_features=192, bias=True)
              (proj_drop): Dropout(p=0.0, inplace=True)
              (softmax): Softmax(dim=-1)
            )
            (drop_path): DropPath(drop_prob=0.245)
            (norm2): LayerNorm((192,), eps=1e-05, elementwise_affine=True)
            (mlp): Mlp(
              (fc1): Linear(in_features=192, out_features=768, bias=True)
              (act): GELU(approximate=none)
              (fc2): Linear(in_features=768, out_features=192, bias=True)
              (drop): Dropout(p=0.0, inplace=True)
            )
          )
        )
        (downsample): TransitionDown(
          (norm): LayerNorm((192,), eps=1e-05, elementwise_affine=True)
          (linear): Linear(in_features=192, out_features=384, bias=False)
          (pool): MaxPool1d(kernel_size=16, stride=16, padding=0, dilation=1, ceil_mode=False)
        )
      )
    )
    (UF_head): BasicLayer(
      (blocks): ModuleList(
        (0): SwinTransformerBlock(
          (norm1): LayerNorm((192,), eps=1e-05, elementwise_affine=True)
          (attn): WindowAttention(
            (qkv): Linear(in_features=192, out_features=576, bias=True)
            (attn_drop): Dropout(p=0.0, inplace=True)
            (proj): Linear(in_features=192, out_features=192, bias=True)
            (proj_drop): Dropout(p=0.0, inplace=True)
            (softmax): Softmax(dim=-1)
          )
          (drop_path): DropPath(drop_prob=0.109)
          (norm2): LayerNorm((192,), eps=1e-05, elementwise_affine=True)
          (mlp): Mlp(
            (fc1): Linear(in_features=192, out_features=768, bias=True)
            (act): GELU(approximate=none)
            (fc2): Linear(in_features=768, out_features=192, bias=True)
            (drop): Dropout(p=0.0, inplace=True)
          )
        )
        (1): SwinTransformerBlock(
          (norm1): LayerNorm((192,), eps=1e-05, elementwise_affine=True)
          (attn): WindowAttention(
            (qkv): Linear(in_features=192, out_features=576, bias=True)
            (attn_drop): Dropout(p=0.0, inplace=True)
            (proj): Linear(in_features=192, out_features=192, bias=True)
            (proj_drop): Dropout(p=0.0, inplace=True)
            (softmax): Softmax(dim=-1)
          )
          (drop_path): DropPath(drop_prob=0.136)
          (norm2): LayerNorm((192,), eps=1e-05, elementwise_affine=True)
          (mlp): Mlp(
            (fc1): Linear(in_features=192, out_features=768, bias=True)
            (act): GELU(approximate=none)
            (fc2): Linear(in_features=768, out_features=192, bias=True)
            (drop): Dropout(p=0.0, inplace=True)
          )
        )
        (2): SwinTransformerBlock(
          (norm1): LayerNorm((192,), eps=1e-05, elementwise_affine=True)
          (attn): WindowAttention(
            (qkv): Linear(in_features=192, out_features=576, bias=True)
            (attn_drop): Dropout(p=0.0, inplace=True)
            (proj): Linear(in_features=192, out_features=192, bias=True)
            (proj_drop): Dropout(p=0.0, inplace=True)
            (softmax): Softmax(dim=-1)
          )
          (drop_path): DropPath(drop_prob=0.164)
          (norm2): LayerNorm((192,), eps=1e-05, elementwise_affine=True)
          (mlp): Mlp(
            (fc1): Linear(in_features=192, out_features=768, bias=True)
            (act): GELU(approximate=none)
            (fc2): Linear(in_features=768, out_features=192, bias=True)
            (drop): Dropout(p=0.0, inplace=True)
          )
        )
        (3): SwinTransformerBlock(
          (norm1): LayerNorm((192,), eps=1e-05, elementwise_affine=True)
          (attn): WindowAttention(
            (qkv): Linear(in_features=192, out_features=576, bias=True)
            (attn_drop): Dropout(p=0.0, inplace=True)
            (proj): Linear(in_features=192, out_features=192, bias=True)
            (proj_drop): Dropout(p=0.0, inplace=True)
            (softmax): Softmax(dim=-1)
          )
          (drop_path): DropPath(drop_prob=0.191)
          (norm2): LayerNorm((192,), eps=1e-05, elementwise_affine=True)
          (mlp): Mlp(
            (fc1): Linear(in_features=192, out_features=768, bias=True)
            (act): GELU(approximate=none)
            (fc2): Linear(in_features=768, out_features=192, bias=True)
            (drop): Dropout(p=0.0, inplace=True)
          )
        )
        (4): SwinTransformerBlock(
          (norm1): LayerNorm((192,), eps=1e-05, elementwise_affine=True)
          (attn): WindowAttention(
            (qkv): Linear(in_features=192, out_features=576, bias=True)
            (attn_drop): Dropout(p=0.0, inplace=True)
            (proj): Linear(in_features=192, out_features=192, bias=True)
            (proj_drop): Dropout(p=0.0, inplace=True)
            (softmax): Softmax(dim=-1)
          )
          (drop_path): DropPath(drop_prob=0.218)
          (norm2): LayerNorm((192,), eps=1e-05, elementwise_affine=True)
          (mlp): Mlp(
            (fc1): Linear(in_features=192, out_features=768, bias=True)
            (act): GELU(approximate=none)
            (fc2): Linear(in_features=768, out_features=192, bias=True)
            (drop): Dropout(p=0.0, inplace=True)
          )
        )
        (5): SwinTransformerBlock(
          (norm1): LayerNorm((192,), eps=1e-05, elementwise_affine=True)
          (attn): WindowAttention(
            (qkv): Linear(in_features=192, out_features=576, bias=True)
            (attn_drop): Dropout(p=0.0, inplace=True)
            (proj): Linear(in_features=192, out_features=192, bias=True)
            (proj_drop): Dropout(p=0.0, inplace=True)
            (softmax): Softmax(dim=-1)
          )
          (drop_path): DropPath(drop_prob=0.245)
          (norm2): LayerNorm((192,), eps=1e-05, elementwise_affine=True)
          (mlp): Mlp(
            (fc1): Linear(in_features=192, out_features=768, bias=True)
            (act): GELU(approximate=none)
            (fc2): Linear(in_features=768, out_features=192, bias=True)
            (drop): Dropout(p=0.0, inplace=True)
          )
        )
      )
      (downsample): TransitionDown(
        (norm): LayerNorm((192,), eps=1e-05, elementwise_affine=True)
        (linear): Linear(in_features=192, out_features=384, bias=False)
        (pool): MaxPool1d(kernel_size=16, stride=16, padding=0, dilation=1, ceil_mode=False)
      )
    )
    (mlp_decode_layer): Sequential(
      (0): Linear(in_features=288, out_features=288, bias=True)
      (1): BatchNorm1d(288, eps=1e-05, momentum=0.1, affine=True, track_running_stats=True)
      (2): ReLU(inplace=True)
      (3): Linear(in_features=288, out_features=512, bias=True)
    )
    (classifier): Sequential(
      (0): Linear(in_features=192, out_features=192, bias=True)
      (1): BatchNorm1d(192, eps=1e-05, momentum=0.1, affine=True, track_running_stats=True)
      (2): ReLU(inplace=True)
      (3): Linear(in_features=192, out_features=7, bias=True)
    )
  )
  (lin1): Sequential(
    (0): Linear(in_features=100, out_features=192, bias=True)
    (1): ReLU(inplace=True)
  )
  (lin2): Sequential(
    (0): Linear(in_features=100, out_features=192, bias=True)
    (1): ReLU(inplace=True)
  )
  (query_lin1): Sequential(
    (0): Linear(in_features=50, out_features=192, bias=True)
    (1): ReLU(inplace=True)
  )
  (query_lin2): Sequential(
    (0): Linear(in_features=50, out_features=192, bias=True)
    (1): ReLU(inplace=True)
  )
  (kpconv): KPConvResBlock(
    (unary_1): Sequential(
      (0): Linear(in_features=192, out_features=48, bias=False)
      (1): FastBatchNorm1d(
        (batch_norm): BatchNorm1d(48, eps=1e-05, momentum=0.02, affine=True, track_running_stats=True)
      )
      (2): LeakyReLU(negative_slope=0.2)
    )
    (unary_2): Sequential(
      (0): Linear(in_features=48, out_features=192, bias=False)
      (1): FastBatchNorm1d(
        (batch_norm): BatchNorm1d(192, eps=1e-05, momentum=0.02, affine=True, track_running_stats=True)
      )
      (2): LeakyReLU(negative_slope=0.2)
    )
    (kpconv): KPConvLayer(InF: 48, OutF: 48, kernel_pts: 15, radius: 0.12, KP_influence: linear, Add_one: False)
    (bn): FastBatchNorm1d(
      (batch_norm): BatchNorm1d(192, eps=1e-05, momentum=0.02, affine=True, track_running_stats=True)
    )
    (activation): LeakyReLU(negative_slope=0.2)
    (shortcut_op): Identity()
  )
  (QGPA): QGPA(
    (layer_norm): LayerNorm((192,), eps=1e-05, elementwise_affine=True)
    (q_map): Conv1d(50, 512, kernel_size=(1,), stride=(1,), bias=False)
    (k_map): Conv1d(50, 512, kernel_size=(1,), stride=(1,), bias=False)
    (v_map): Linear(in_features=192, out_features=192, bias=True)
    (fc): Conv1d(192, 192, kernel_size=(1,), stride=(1,), bias=False)
    (dropout): Dropout(p=0.1, inplace=False)
  )
  (Adapter1): Sequential(
    (0): Linear(in_features=192, out_features=192, bias=True)
    (1): LayerNorm((192,), eps=1e-05, elementwise_affine=True)
    (2): ReLU()
    (3): Dropout(p=0.1, inplace=False)
    (4): Linear(in_features=192, out_features=2, bias=True)
  )
  (Adapter2): Sequential(
    (0): Linear(in_features=2, out_features=192, bias=True)
    (1): LayerNorm((192,), eps=1e-05, elementwise_affine=True)
    (2): ReLU()
    (3): Dropout(p=0.1, inplace=False)
    (4): Linear(in_features=192, out_features=2, bias=True)
  )
  (Adapter3): Sequential(
    (0): Linear(in_features=2, out_features=192, bias=True)
    (1): LayerNorm((192,), eps=1e-05, elementwise_affine=True)
    (2): ReLU()
    (3): Dropout(p=0.1, inplace=False)
    (4): Linear(in_features=192, out_features=2, bias=True)
  )
  (Generator): Sequential(
    (0): Linear(in_features=192, out_features=192, bias=True)
    (1): LayerNorm((192,), eps=1e-05, elementwise_affine=True)
    (2): ReLU()
    (3): Dropout(p=0.1, inplace=False)
    (4): Linear(in_features=192, out_features=1, bias=True)
  )
  (bk_ffn): Sequential(
    (0): Linear(in_features=288, out_features=768, bias=True)
    (1): ReLU()
    (2): Dropout(p=0.1, inplace=False)
    (3): Linear(in_features=768, out_features=192, bias=True)
  )
  (msf_layers): ModuleList()
  (ccb_layers): ModuleList(
    (0): CCBLayer(
      (transformer_layer): CCB_TransformerLayer(
        (attention1): AttentionLayer(
          (q): Linear(in_features=192, out_features=192, bias=True)
          (k): Linear(in_features=192, out_features=192, bias=True)
          (v): Linear(in_features=192, out_features=192, bias=True)
          (attention): LinearAttention()
        )
        (attention2): AttentionLayer(
          (q): Linear(in_features=192, out_features=192, bias=True)
          (k): Linear(in_features=192, out_features=192, bias=True)
          (v): Linear(in_features=192, out_features=192, bias=True)
          (attention): LinearAttention()
        )
        (attention3): AttentionLayer(
          (q): Linear(in_features=192, out_features=192, bias=True)
          (k): Linear(in_features=192, out_features=192, bias=True)
          (v): Linear(in_features=192, out_features=192, bias=True)
          (attention): LinearAttention()
        )
        (MLP0): Sequential(
          (0): Linear(in_features=192, out_features=768, bias=True)
          (1): ReLU()
          (2): Linear(in_features=768, out_features=192, bias=True)
        )
        (MLP1): Sequential(
          (0): Linear(in_features=192, out_features=768, bias=True)
          (1): ReLU()
          (2): Linear(in_features=768, out_features=192, bias=True)
        )
        (MLP2): Sequential(
          (0): Linear(in_features=192, out_features=768, bias=True)
          (1): ReLU()
          (2): Linear(in_features=768, out_features=192, bias=True)
        )
        (MLP3): Sequential(
          (0): Linear(in_features=192, out_features=768, bias=True)
          (1): ReLU()
          (2): Linear(in_features=768, out_features=192, bias=True)
        )
        (norm0): LayerNorm((192,), eps=1e-05, elementwise_affine=True)
        (norm11): LayerNorm((192,), eps=1e-05, elementwise_affine=True)
        (norm12): LayerNorm((192,), eps=1e-05, elementwise_affine=True)
        (norm21): LayerNorm((192,), eps=1e-05, elementwise_affine=True)
        (norm22): LayerNorm((192,), eps=1e-05, elementwise_affine=True)
        (norm31): LayerNorm((192,), eps=1e-05, elementwise_affine=True)
        (norm32): LayerNorm((192,), eps=1e-05, elementwise_affine=True)
        (norm_xbg): LayerNorm((2, 192), eps=1e-05, elementwise_affine=True)
        (base_merge): Conv1d(2, 1, kernel_size=(1,), stride=(1,), bias=False)
      )
      (cor_norm): LayerNorm((2, 192), eps=1e-05, elementwise_affine=True)
      (semguid_norm): LayerNorm((2, 192), eps=1e-05, elementwise_affine=True)
      (weight_mlp): Sequential(
        (0): Linear(in_features=384, out_features=384, bias=True)
        (1): LayerNorm((384,), eps=1e-05, elementwise_affine=True)
        (2): ReLU()
        (3): Dropout(p=0.1, inplace=False)
        (4): Linear(in_features=384, out_features=1, bias=True)
      )
    )
  )
  (class_reduce): MLPWithoutResidual(
    (fc1): Linear(in_features=768, out_features=3072, bias=True)
    (fc2): Linear(in_features=3072, out_features=192, bias=True)
    (relu): ReLU()
  )
  (bg_proto_reduce): MLPWithoutResidual(
    (fc1): Linear(in_features=100, out_features=400, bias=True)
    (fc2): Linear(in_features=400, out_features=100, bias=True)
    (relu): ReLU()
  )
  (IF_bg_proto_reduce): MLPWithoutResidual(
    (fc1): Linear(in_features=100, out_features=400, bias=True)
    (fc2): Linear(in_features=400, out_features=100, bias=True)
    (relu): ReLU()
  )
)
[01/07 20:38:04] main-logger INFO: #Model parameters: 13028051
[01/07 20:38:04] main-logger INFO: => loading weight '/home/user/CODES/ex_data/COSeg_mult/2_924/080/model/model_best.pth'
[01/07 20:38:05] main-logger INFO: => loaded weight '/home/user/CODES/ex_data/COSeg_mult/2_924/080/model/model_best.pth'
[01/07 20:38:05] main-logger INFO: The main process prepares test data while other processes wait...
…
